…
[12/02 23:55:11][INFO] test_net.py:  405: module.raw_model.transformer.resblocks.11.ln_2.bias
[12/02 23:55:11][INFO] test_net.py:  404: missing parameters
[12/02 23:55:11][INFO] test_net.py:  405: module.raw_model.token_embedding.weight
[12/02 23:55:11][INFO] test_net.py:  404: missing parameters
[12/02 23:55:11][INFO] test_net.py:  405: module.raw_model.ln_final.weight
[12/02 23:55:11][INFO] test_net.py:  404: missing parameters
[12/02 23:55:11][INFO] test_net.py:  405: module.raw_model.ln_final.bias
[12/02 23:55:11][INFO] misc.py:  185: Model:
DistributedDataParallel(
  (module): TemporalClipVideo(
    (model): WCLIP(
      (visual): TemporalVisionTransformer(
        (conv1): Conv2d(3, 768, kernel_size=(16, 16), stride=(16, 16), bias=False)
        (ln_pre): LayerNorm((768,), eps=1e-05, elementwise_affine=True)
        (transformer): TSTransformer(
          (resblocks): Sequential(
            (0): TimesAttentionBlock(
              (attn): MultiheadAttention(
                (out_proj): NonDynamicallyQuantizableLinear(in_features=768, out_features=768, bias=True)
              )
              (ln_1): LayerNorm((768,), eps=1e-05, elementwise_affine=True)
              (mlp): Sequential(
                (c_fc): Linear(in_features=768, out_features=3072, bias=True)
                (gelu): QuickGELU()
                (c_proj): Linear(in_features=3072, out_features=768, bias=True)
              )
              (ln_2): LayerNorm((768,), eps=1e-05, elementwise_affine=True)
            )
            (1): TimesAttentionBlock(
              (attn): MultiheadAttention(
                (out_proj): NonDynamicallyQuantizableLinear(in_features=768, out_features=768, bias=True)
              )
              (ln_1): LayerNorm((768,), eps=1e-05, elementwise_affine=True)
              (mlp): Sequential(
                (c_fc): Linear(in_features=768, out_features=3072, bias=True)
                (gelu): QuickGELU()
                (c_proj): Linear(in_features=3072, out_features=768, bias=True)
              )
              (ln_2): LayerNorm((768,), eps=1e-05, elementwise_affine=True)
            )
            (2): TimesAttentionBlock(
              (attn): MultiheadAttention(
                (out_proj): NonDynamicallyQuantizableLinear(in_features=768, out_features=768, bias=True)
              )
              (ln_1): LayerNorm((768,), eps=1e-05, elementwise_affine=True)
              (mlp): Sequential(
                (c_fc): Linear(in_features=768, out_features=3072, bias=True)
                (gelu): QuickGELU()
                (c_proj): Linear(in_features=3072, out_features=768, bias=True)
              )
              (ln_2): LayerNorm((768,), eps=1e-05, elementwise_affine=True)
            )
            (3): TimesAttentionBlock(
              (attn): MultiheadAttention(
                (out_proj): NonDynamicallyQuantizableLinear(in_features=768, out_features=768, bias=True)
              )
              (ln_1): LayerNorm((768,), eps=1e-05, elementwise_affine=True)
              (mlp): Sequential(
                (c_fc): Linear(in_features=768, out_features=3072, bias=True)
                (gelu): QuickGELU()
                (c_proj): Linear(in_features=3072, out_features=768, bias=True)
              )
              (ln_2): LayerNorm((768,), eps=1e-05, elementwise_affine=True)
            )
            (4): TimesAttentionBlock(
              (attn): MultiheadAttention(
                (out_proj): NonDynamicallyQuantizableLinear(in_features=768, out_features=768, bias=True)
              )
              (ln_1): LayerNorm((768,), eps=1e-05, elementwise_affine=True)
              (mlp): Sequential(
                (c_fc): Linear(in_features=768, out_features=3072, bias=True)
                (gelu): QuickGELU()
                (c_proj): Linear(in_features=3072, out_features=768, bias=True)
              )
              (ln_2): LayerNorm((768,), eps=1e-05, elementwise_affine=True)
            )
            (5): TimesAttentionBlock(
              (attn): MultiheadAttention(
                (out_proj): NonDynamicallyQuantizableLinear(in_features=768, out_features=768, bias=True)
              )
              (ln_1): LayerNorm((768,), eps=1e-05, elementwise_affine=True)
              (mlp): Sequential(
                (c_fc): Linear(in_features=768, out_features=3072, bias=True)
                (gelu): QuickGELU()
                (c_proj): Linear(in_features=3072, out_features=768, bias=True)
              )
              (ln_2): LayerNorm((768,), eps=1e-05, elementwise_affine=True)
            )
            (6): TimesAttentionBlock(
              (attn): MultiheadAttention(
                (out_proj): NonDynamicallyQuantizableLinear(in_features=768, out_features=768, bias=True)
              )
              (ln_1): LayerNorm((768,), eps=1e-05, elementwise_affine=True)
              (mlp): Sequential(
                (c_fc): Linear(in_features=768, out_features=3072, bias=True)
                (gelu): QuickGELU()
                (c_proj): Linear(in_features=3072, out_features=768, bias=True)
              )
              (ln_2): LayerNorm((768,), eps=1e-05, elementwise_affine=True)
            )
            (7): TimesAttentionBlock(
              (attn): MultiheadAttention(
                (out_proj): NonDynamicallyQuantizableLinear(in_features=768, out_features=768, bias=True)
              )
              (ln_1): LayerNorm((768,), eps=1e-05, elementwise_affine=True)
              (mlp): Sequential(
                (c_fc): Linear(in_features=768, out_features=3072, bias=True)
                (gelu): QuickGELU()
                (c_proj): Linear(in_features=3072, out_features=768, bias=True)
              )
              (ln_2): LayerNorm((768,), eps=1e-05, elementwise_affine=True)
            )
            (8): TimesAttentionBlock(
              (attn): MultiheadAttention(
                (out_proj): NonDynamicallyQuantizableLinear(in_features=768, out_features=768, bias=True)
              )
              (ln_1): LayerNorm((768,), eps=1e-05, elementwise_affine=True)
              (mlp): Sequential(
                (c_fc): Linear(in_features=768, out_features=3072, bias=True)
                (gelu): QuickGELU()
                (c_proj): Linear(in_features=3072, out_features=768, bias=True)
              )
              (ln_2): LayerNorm((768,), eps=1e-05, elementwise_affine=True)
            )
            (9): TimesAttentionBlock(
              (attn): MultiheadAttention(
                (out_proj): NonDynamicallyQuantizableLinear(in_features=768, out_features=768, bias=True)
              )
              (ln_1): LayerNorm((768,), eps=1e-05, elementwise_affine=True)
              (mlp): Sequential(
                (c_fc): Linear(in_features=768, out_features=3072, bias=True)
                (gelu): QuickGELU()
                (c_proj): Linear(in_features=3072, out_features=768, bias=True)
              )
              (ln_2): LayerNorm((768,), eps=1e-05, elementwise_affine=True)
            )
            (10): TimesAttentionBlock(
              (attn): MultiheadAttention(
                (out_proj): NonDynamicallyQuantizableLinear(in_features=768, out_features=768, bias=True)
              )
              (ln_1): LayerNorm((768,), eps=1e-05, elementwise_affine=True)
              (mlp): Sequential(
                (c_fc): Linear(in_features=768, out_features=3072, bias=True)
                (gelu): QuickGELU()
                (c_proj): Linear(in_features=3072, out_features=768, bias=True)
              )
              (ln_2): LayerNorm((768,), eps=1e-05, elementwise_affine=True)
            )
            (11): TimesAttentionBlock(
              (attn): MultiheadAttention(
                (out_proj): NonDynamicallyQuantizableLinear(in_features=768, out_features=768, bias=True)
              )
              (ln_1): LayerNorm((768,), eps=1e-05, elementwise_affine=True)
              (mlp): Sequential(
                (c_fc): Linear(in_features=768, out_features=3072, bias=True)
                (gelu): QuickGELU()
                (c_proj): Linear(in_features=3072, out_features=768, bias=True)
              )
              (ln_2): LayerNorm((768,), eps=1e-05, elementwise_affine=True)
            )
          )
        )
        (ln_post): LayerNorm((768,), eps=1e-05, elementwise_affine=True)
      )
      (transformer): Transformer(
        (resblocks): Sequential(
          (0): ResidualAttentionBlock(
            (attn): MultiheadAttention(
              (out_proj): NonDynamicallyQuantizableLinear(in_features=512, out_features=512, bias=True)
            )
            (ln_1): LayerNorm((512,), eps=1e-05, elementwise_affine=True)
            (mlp): Sequential(
              (c_fc): Linear(in_features=512, out_features=2048, bias=True)
              (gelu): QuickGELU()
              (c_proj): Linear(in_features=2048, out_features=512, bias=True)
            )
            (ln_2): LayerNorm((512,), eps=1e-05, elementwise_affine=True)
          )
          (1): ResidualAttentionBlock(
            (attn): MultiheadAttention(
              (out_proj): NonDynamicallyQuantizableLinear(in_features=512, out_features=512, bias=True)
            )
            (ln_1): LayerNorm((512,), eps=1e-05, elementwise_affine=True)
            (mlp): Sequential(
              (c_fc): Linear(in_features=512, out_features=2048, bias=True)
              (gelu): QuickGELU()
              (c_proj): Linear(in_features=2048, out_features=512, bias=True)
            )
            (ln_2): LayerNorm((512,), eps=1e-05, elementwise_affine=True)
          )
          (2): ResidualAttentionBlock(
            (attn): MultiheadAttention(
              (out_proj): NonDynamicallyQuantizableLinear(in_features=512, out_features=512, bias=True)
            )
            (ln_1): LayerNorm((512,), eps=1e-05, elementwise_affine=True)
            (mlp): Sequential(
              (c_fc): Linear(in_features=512, out_features=2048, bias=True)
              (gelu): QuickGELU()
              (c_proj): Linear(in_features=2048, out_features=512, bias=True)
            )
            (ln_2): LayerNorm((512,), eps=1e-05, elementwise_affine=True)
          )
          (3): ResidualAttentionBlock(
            (attn): MultiheadAttention(
              (out_proj): NonDynamicallyQuantizableLinear(in_features=512, out_features=512, bias=True)
            )
            (ln_1): LayerNorm((512,), eps=1e-05, elementwise_affine=True)
            (mlp): Sequential(
              (c_fc): Linear(in_features=512, out_features=2048, bias=True)
              (gelu): QuickGELU()
              (c_proj): Linear(in_features=2048, out_features=512, bias=True)
            )
            (ln_2): LayerNorm((512,), eps=1e-05, elementwise_affine=True)
          )
          (4): ResidualAttentionBlock(
            (attn): MultiheadAttention(
              (out_proj): NonDynamicallyQuantizableLinear(in_features=512, out_features=512, bias=True)
            )
            (ln_1): LayerNorm((512,), eps=1e-05, elementwise_affine=True)
            (mlp): Sequential(
              (c_fc): Linear(in_features=512, out_features=2048, bias=True)
              (gelu): QuickGELU()
              (c_proj): Linear(in_features=2048, out_features=512, bias=True)
            )
            (ln_2): LayerNorm((512,), eps=1e-05, elementwise_affine=True)
          )
          (5): ResidualAttentionBlock(
            (attn): MultiheadAttention(
              (out_proj): NonDynamicallyQuantizableLinear(in_features=512, out_features=512, bias=True)
            )
            (ln_1): LayerNorm((512,), eps=1e-05, elementwise_affine=True)
            (mlp): Sequential(
              (c_fc): Linear(in_features=512, out_features=2048, bias=True)
              (gelu): QuickGELU()
              (c_proj): Linear(in_features=2048, out_features=512, bias=True)
            )
            (ln_2): LayerNorm((512,), eps=1e-05, elementwise_affine=True)
          )
          (6): ResidualAttentionBlock(
            (attn): MultiheadAttention(
              (out_proj): NonDynamicallyQuantizableLinear(in_features=512, out_features=512, bias=True)
            )
            (ln_1): LayerNorm((512,), eps=1e-05, elementwise_affine=True)
            (mlp): Sequential(
              (c_fc): Linear(in_features=512, out_features=2048, bias=True)
              (gelu): QuickGELU()
              (c_proj): Linear(in_features=2048, out_features=512, bias=True)
            )
            (ln_2): LayerNorm((512,), eps=1e-05, elementwise_affine=True)
          )
          (7): ResidualAttentionBlock(
            (attn): MultiheadAttention(
              (out_proj): NonDynamicallyQuantizableLinear(in_features=512, out_features=512, bias=True)
            )
            (ln_1): LayerNorm((512,), eps=1e-05, elementwise_affine=True)
            (mlp): Sequential(
              (c_fc): Linear(in_features=512, out_features=2048, bias=True)
              (gelu): QuickGELU()
              (c_proj): Linear(in_features=2048, out_features=512, bias=True)
            )
            (ln_2): LayerNorm((512,), eps=1e-05, elementwise_affine=True)
          )
          (8): ResidualAttentionBlock(
            (attn): MultiheadAttention(
              (out_proj): NonDynamicallyQuantizableLinear(in_features=512, out_features=512, bias=True)
            )
            (ln_1): LayerNorm((512,), eps=1e-05, elementwise_affine=True)
            (mlp): Sequential(
              (c_fc): Linear(in_features=512, out_features=2048, bias=True)
              (gelu): QuickGELU()
              (c_proj): Linear(in_features=2048, out_features=512, bias=True)
            )
            (ln_2): LayerNorm((512,), eps=1e-05, elementwise_affine=True)
          )
          (9): ResidualAttentionBlock(
            (attn): MultiheadAttention(
              (out_proj): NonDynamicallyQuantizableLinear(in_features=512, out_features=512, bias=True)
            )
            (ln_1): LayerNorm((512,), eps=1e-05, elementwise_affine=True)
            (mlp): Sequential(
              (c_fc): Linear(in_features=512, out_features=2048, bias=True)
              (gelu): QuickGELU()
              (c_proj): Linear(in_features=2048, out_features=512, bias=True)
            )
            (ln_2): LayerNorm((512,), eps=1e-05, elementwise_affine=True)
          )
          (10): ResidualAttentionBlock(
            (attn): MultiheadAttention(
              (out_proj): NonDynamicallyQuantizableLinear(in_features=512, out_features=512, bias=True)
            )
            (ln_1): LayerNorm((512,), eps=1e-05, elementwise_affine=True)
            (mlp): Sequential(
              (c_fc): Linear(in_features=512, out_features=2048, bias=True)
              (gelu): QuickGELU()
              (c_proj): Linear(in_features=2048, out_features=512, bias=True)
            )
            (ln_2): LayerNorm((512,), eps=1e-05, elementwise_affine=True)
          )
          (11): ResidualAttentionBlock(
            (attn): MultiheadAttention(
              (out_proj): NonDynamicallyQuantizableLinear(in_features=512, out_features=512, bias=True)
            )
            (ln_1): LayerNorm((512,), eps=1e-05, elementwise_affine=True)
            (mlp): Sequential(
              (c_fc): Linear(in_features=512, out_features=2048, bias=True)
              (gelu): QuickGELU()
              (c_proj): Linear(in_features=2048, out_features=512, bias=True)
            )
            (ln_2): LayerNorm((512,), eps=1e-05, elementwise_affine=True)
          )
        )
      )
      (token_embedding): Embedding(49408, 512)
      (ln_final): LayerNorm((512,), eps=1e-05, elementwise_affine=True)
    )
    (projector_v): Sequential(
      (0): Linear(in_features=512, out_features=512, bias=False)
      (1): GELU()
      (2): Linear(in_features=512, out_features=512, bias=False)
    )
    (projector_t): Sequential(
      (0): Linear(in_features=512, out_features=512, bias=False)
      (1): GELU()
      (2): Linear(in_features=512, out_features=512, bias=False)
    )
  )
)
[12/02 23:55:11][INFO] misc.py:  187: Params: 150,669,313
[12/02 23:55:11][INFO] misc.py:  188: Mem: 1.1396045684814453 MB
[12/02 23:55:11][INFO] misc.py:  197: nvidia-smi
Mon Dec  2 23:55:11 2024       
+-----------------------------------------------------------------------------+
| NVIDIA-SMI 525.125.06   Driver Version: 525.125.06   CUDA Version: 12.0     |
…
